model/CNN_llama3.1_alltask_5case/best_model.pth (torch, 22054 bytes, 5 tensors)

conv1.weight f4 [16, 1, 3, 3]
00000000: fd12 04be 59e2 cd3e 3a27 30bd 2e32 a9bd
00000010: e72c 133e 5e37 bcbd 4886 953c 85d0 943e
00000020: e9f6 d33c 6f61 3a3e 9016 0f3e 46b3 123f
00000030: 0585 0cbf ab9e eb3e 983a 943c 23b1 e2bf
00000040: fecc ed3d 3857 dfbf 0c95 b43e 5165 0a3e
00000050: 223e 9d3e 9ec6 eabe 674a 1cc0 9c14 87bf
00000060: ab9e 9ebe a16f 4e3d 8d7a 703f a370 35bc
00000070: 45a7 f3be 8ed4 aabf 1bde 3fbd 49f6 a93e
00000080: 0976 0e3d 3112 cfbc 2d91 b6be abb5 913f
00000090: 227e a23e 8bda bb3e 46ab af3e 8fea 8d3e
000000a0: ae8c 9ebe df1b 57bd 3715 c23e 6dfd c63e
000000b0: ecaa a43d 0da0 febc a91a 2a3e 2012 213f
000000c0: 93cd 63bc 656e 123f 404f 95bd 3358 b63d
000000d0: bc49 083e 0101 283e ad2b 393e 098e 3cbf
000000e0: fc75 22bf 32f7 ea3e 9368 10be 2bf8 623e
000000f0: 1333 9a3e 1123 2f3f c6b1 bfbf 3c87 703e
00000100: 4db5 d63e d95d 393d 86e8 77be 8276 a43e
00000110: 6d1b 0d3e c7f4 51bf bcd4 e83e c5fc 8dbf
00000120: 086f efbf dc52 b1bf 6a1c edbe e784 b63e
00000130: 61db e33e 92ef 92be a462 053e c670 543e
00000140: d408 bb3e 992c 7a3e a2f8 dc3e 003b 33be
00000150: 3698 393f 1f8b 813e d682 0f3c e5e7 64bf
00000160: aaef c1bd f24e 253e a637 24be ee8b da3e
00000170: 637c bd3e d78f 4abe dafd da3e 2293 503f
00000180: 1c2e 89bf d19a 47bf e3b5 913e 47cd 0c3f
00000190: dd95 83bd ea61 2a3f e492 8ebe 0fe1 4e3f
000001a0: 1324 7fbe ae7a d5be 104b 40bf 86e5 12c0
000001b0: 89dd 303e 9588 8e3e a2d9 8a3f a0b9 92bd
000001c0: 5ebb 81be b073 bfbe 477b 91bd 178c e63e
000001d0: d03d 1c3d b222 0c3f d71b 8fbe b1fb fcbf
000001e0: 55ed 173e bd29 d0bd 38ef 16c0 05b1 d23e
000001f0: f834 3b3f 4f81 17c0 c9d2 6fbd 01e7 d73e
00000200: 9d8d ad3e 2385 8f3a 4ffe e33e 407a 25bf
00000210: df66 803b 5f1f 04be cd20 8cc0 1663 8d3e
00000220: 08ab 423f a542 613e 23a8 8abf f438 8ebf
00000230: ec79 d13e ea6e ff3e 1a17 9bc0 bc7c 48c0
-0.12897868 0.40211752 -0.04300616 -0.08261524 0.14372598 -0.09190248 0.018252507 0.29065338
0.025874572 0.1820123 0.1397345 0.573048 -0.5489047 0.46019492 0.018094346 -1.7710308
0.11611365 -1.7448492 0.35269964 0.13515212 0.30711466 -0.45854658 -2.4420412 -1.0553164
-0.3098043 0.050399426 0.93937 -0.011074218 -0.47588554 -1.3346117 -0.046842676 0.33195713
0.034780536 -0.025277229 -0.35657635 1.1383566 0.31736857 0.36690173 0.3431036 0.27718017
-0.30966705 -0.052516814 0.3790681 0.38865224 0.08040413 -0.031082178 0.16611733 0.6291828
-0.013903993 0.571997 -0.07290506 0.089035414 0.13309377 0.16406633 0.18083067 -0.7365423
-0.6346128 0.4589172 -0.14102392 0.22164981 0.30117092 0.6841288 -1.4976127 0.23489088
0.41935197 0.045255516 -0.24209794 0.32121664 0.13779993 -0.82014126 0.45474803 -1.1092764
-1.8705759 -1.3853412 -0.4631074 0.3564827 0.4450331 -0.28698403 0.1302591 0.20746145
0.36530173 0.24431075 0.43158442 -0.17502975 0.7249788 0.25301453 0.008759221 -0.8941634
-0.094695404 0.16143396 -0.16036853 0.42684883 0.37008962 -0.19781433 0.42771798 0.81474507
-1.0717196 -0.77970606 0.2845908 0.5500073 -0.064250685 0.66555655 -0.27846444 0.8081216
-0.24916105 -0.4169516 -0.75114536 -2.295259 0.17272009 0.2783858 1.0847666 -0.071643114
-0.25338262 -0.3739295 -0.071035914 0.45028755 0.038144886 0.5474044 -0.27950928 -1.976431
0.14836629 -0.10164211 -2.3583508 0.4115068 0.731277 -2.3672674 -0.05855063 0.4216843
0.33897105 0.0010949712 0.4452996 -0.64639664 0.003918513 -0.12902592 -4.379004 0.2761466
0.7604222 0.21998079 -1.0832561 -1.1111131 0.40913332 0.49889308 -4.84657 -3.1326132

conv1.bias f4 [16]
00000000: 6036 8f3d 70da 11bd 1a31 833d 5fbe 14bc
00000010: 760c c63c 30ce a83c 0e7e 48bc 76e8 6e3d
00000020: 5615 ad3c 9c76 943d 95af 123c 3a5d 9d3c
00000030: 2f46 e83c 5480 9bbe 3c87 533b 3566 b1ba
0.06992793 -0.03560871 0.0640585 -0.009078591 0.024175864 0.02060613 -0.012237085 0.05832716
0.021128338 0.072491854 0.008952995 0.019209493 0.028353779 -0.30371344 0.003227665 -0.0013534488

conv2.weight f4 [32, 16, 3, 3]
00000000: 8f11 3fbf 5eae 57be 37e2 27bf 3824 63be
00000010: f820 41be ec50 2fbf 70bf a4bd c1fe 48be
00000020: 78ac 25bf 2fa3 70bf 8550 a8bc 4443 5cbd
00000030: 289d 963d 5606 b9bd 52f1 31be 50b8 7bbc
00000040: 7c53 7cb9 df3a 4fbe d67e 423f bf80 043e
00000050: e32c 11bf caf3 bd3d cffd 2e3d 05d0 1ebf
00000060: 0c5b 90be 1304 943d 5a8f 22bf 8da2 07bd
00000070: 1d83 53bd 7312 0a3c cd2a b0bd 2ac1 4d3c
00000080: 5e68 e83d d123 5d3d a903 503d f055 903d
00000090: 3dd8 73bc e7b5 d6be 8c7c 3bbe 1081 0bbe
000000a0: 61e9 c5be a76a 58be c106 8e3d f89e 90be
000000b0: 4398 91be 9882 dcbe 65f9 95be bec8 babe
000000c0: 7fc2 58be 0725 8bbe a403 c5be b122 47be
000000d0: 5bd8 d3bd 2e27 cfbe 5956 8cbd 907e dfbd
000000e0: d6c2 5dbc 8a22 2b3d 432c b9bc 3495 e93c
000000f0: 9659 b73e 3ab7 383e c49b da3d 9007 ff3e
00000100: 70d8 24bd dd0c 24bf efbd 77bf 4037 083c
00000110: 5ee1 43bf efbc c7be 812d 5f3d d411 4ebf
00000120: 9dad f5bd 82c0 193e ec20 2ebe 1ad9 d1bb
00000130: 8fce 28bc b92b f0bd 0cf3 293e 7ccd 383e
00000140: 8589 04be 9d1a 9f3d 16e5 58be 5718 64bf
00000150: 75a4 82bf 8210 52be d88b 75bf 4bc3 ee3d
00000160: b63f 83be 606d 67bf 8def 0ebf 9e23 4abd
00000170: 6d35 853d 83cb 3bbe d77f 80bb 832c 3ebe
00000180: c335 9cbe c182 7e3c ca6d 42be b9e4 0c3f
00000190: 442e 86be f0b7 9fbe 2f16 efbe df32 34bd
000001a0: 867e 8abe 3d01 b4be 4783 613c 3c66 67be
000001b0: ba39 493e 9fef 8abe 4b25 c1be d022 99be
000001c0: 312a 84be c9bd cfbe 8825 43be 0c2b 80be
000001d0: 22a9 0cbf 661a 693e 5206 19be 3fd3 60bc
000001e0: ea9b 18be 3d7b 9fbd 5421 dc3c 727e 39be
000001f0: f744 57be 8039 453d 9680 86be 97c1 2dbe
00000200: 4cb3 90be 576c 62bd c111 2dbe 317f 43be
00000210: 2977 debd 1ddd 1fbe 6525 16be d696 4e3f
00000220: 0516 f9bd c1c1 863d 25a2 6a3e 09ae ba3d
00000230: d7a9 903d f8ae 523e 878d 563e bf15 af3c
00000240: 59be 17bf 2f90 793d f6f9 cebe 041b f7be
00000250: 3751 81be 6e7f 25bf 8903 18bd d57f 8abe
00000260: 77b9 49bd ade0 32bf bc09 0ebf 2891 e9bd
00000270: 12dd 40be 03b4 7c3e 294b 0dbf 6b13 063f
00000280: a19c 27be 59c1 42bf 6e23 1f3e f2c0 c93e
00000290: bd4a 0bbe 8c08 66be 4654 18be 2b20 cebe
000002a0: 603d 15be e7fd 5bbe 602e 91bd 9b8f ac3d
000002b0: ad28 1f3d 470b 05be 59c2 25be 0248 fd3e
000002c0: 53cb ac3e 6ed5 e3bd 7425 abbd 1cc6 8e3d
000002d0: 39a8 223d 3292 a83d eeac 4d3d 79cb 223e
000002e0: 1f59 a93c eac3 a0be 3bd3 19bf 4f34 653d
000002f0: 5926 d6bd 1197 a6bc 75b4 05be 8f33 23bf
00000300: 8b85 0cbf 78d3 b33c de3e cd3d 907d 31be
00000310: b5ec 1abd 156e 24be 7d36 733e 893a 0abe
00000320: ef51 b33e a4f0 fc3e 26d0 93bc 357e 2abe
00000330: b69e 233e 329a c23e 1019 9ebd da43 d0be
00000340: d224 2cbe 145a 2dbf 160c d53e a698 253d
00000350: d65e 1abf f415 523e 95f2 2cbe d316 58bf
00000360: 5dcb 5c3e c988 383e 266a 29bf 6006 adbd
00000370: 29e5 263e 4dc4 c4be 108a d2bd 28d8 fe3d
00000380: a93d e2bd 7398 82be 6bd2 bdbc 8c16 433e
00000390: 2827 cb3c 56d4 71be c8c0 adbe d2b0 11bf
000003a0: 1fdc 1dbe 0322 8cbe d927 243e 8da0 743d
000003b0: 987b 87bd cfd2 243f 3c4e 2c3f 4b18 c4be
000003c0: bf4d 0ebd c62e 8bbf e038 fc3d 84f9 a4be
000003d0: d7e9 edbe 566c 04bf ebf6 90be 08c5 053d
000003e0: d94a 203f eb85 0ebe 6604 16be 82c2 1dbe
000003f0: 5b93 3e3e 464f 113e 9341 1a3e a326 d13d
-0.7463617 -0.2106261 -0.6557955 -0.22181785 -0.18860233 -0.6848285 -0.08044326 -0.19628431
-0.6471629 -0.93999 -0.020546207 -0.053775087 0.07354194 -0.090344116 -0.17377213 -0.015363768
-0.00024063693 -0.20237301 0.75974786 0.12939738 -0.56709117 0.09275015 0.04272252 -0.6203616
-0.28194463 0.072273396 -0.6349999 -0.033114005 -0.05163871 0.00842725 -0.086019136 0.012558261
0.113480315 0.053989235 0.05078474 0.07047641 -0.014883098 -0.41935655 -0.1830923 -0.13623452
-0.38654616 -0.21134435 0.06934882 -0.28246284 -0.2843648 -0.43068385 -0.29291835 -0.3648128
-0.21167944 -0.27176687 -0.3847934 -0.19446827 -0.10344001 -0.4045958 -0.06852407 -0.10912812
-0.013535222 0.041780986 -0.022604113 0.028513528 0.35810536 0.18038645 0.10674241 0.49810457
-0.040245473 -0.6408213 -0.9677419 0.008313954 -0.7651576 -0.39011332 0.054486755 -0.80495954
-0.11996005 0.15014842 -0.17004746 -0.0064040544 -0.010303154 -0.117270894 0.16596621 0.18047136
-0.12943085 0.07768748 -0.2118114 -0.8909964 -1.0206438 -0.2051411 -0.9591651 0.11658343
-0.25634545 -0.9040127 -0.55834275 -0.049350373 0.06504331 -0.18339352 -0.0039214897 -0.18571667
-0.30509767 0.015534104 -0.18987194 0.55036503 -0.26207173 -0.3119502 -0.46696612 -0.043993827
-0.27049655 -0.35157195 0.013764209 -0.22597593 0.19650927 -0.2713594 -0.37723765 -0.29909372
-0.2581344 -0.40574482 -0.19057286 -0.25032842 -0.54945576 0.22763976 -0.14943817 -0.01372224
-0.14903226 -0.07787178 0.02687136 -0.18114641 -0.21022402 0.04815054 -0.26269978 -0.1696838
-0.28261793 -0.055279102 -0.16901304 -0.19091488 -0.10862572 -0.15611692 -0.14662702 0.8069891
-0.12162403 0.065799244 0.22913416 0.09115226 0.070636444 0.20574558 0.20952426 0.021372674
-0.5927482 0.06092852 -0.4042508 -0.482628 -0.25257275 -0.6464757 -0.037112746 -0.27050653
-0.04924914 -0.6987408 -0.55483603 -0.114046395 -0.18834332 0.24678044 -0.5519281 0.5237338
-0.16368343 -0.76076275 0.15540859 0.39405018 -0.13602729 -0.22464198 -0.14875898 -0.40258917
-0.14574194 -0.21483575 -0.070889235 0.08425828 0.03885715 -0.12992583 -0.16187419 0.49469
0.33748874 -0.11124693 -0.08356753 0.0697138 0.03971121 0.082310095 0.050213747 0.15897931
0.020672379 -0.3139947 -0.6008794 0.05595809 -0.10456533 -0.020335706 -0.1305712 -0.6375055
-0.5489127 0.021951422 0.100217566 -0.17333055 -0.037823398 -0.16057618 0.23751254 -0.13498892
0.35023448 0.49402344 -0.018043589 -0.16649707 0.15978512 0.38008267 -0.07719624 -0.40676767
-0.16810921 -0.67715573 0.41610783 0.04042878 -0.6030096 0.20516187 -0.16889413 -0.84409827
0.21561952 0.1802093 -0.66177595 -0.084484816 0.16298355 -0.38431016 -0.102802396 0.12443572
-0.11046917 -0.25506935 -0.023171624 0.1905157 0.024798945 -0.23616156 -0.33936143 -0.5691043
-0.15416001 -0.273697 0.16030826 0.059723426 -0.066153705 0.6438417 0.67306876 -0.38299784
-0.034742113 -1.0873649 0.123155355 -0.32221615 -0.46467468 -0.5172781 -0.28313383 0.032658607
0.6261421 -0.13918273 -0.14650115 -0.1540623 0.18610899 0.14190397 0.15064077 0.102124475

conv2.bias f4 [32]
00000000: 7b20 22be 67f9 15bf 5c01 54bd fef2 043e
00000010: c3d7 973d 22c7 253e cf1c 9fbc 089c 563e
00000020: f5ba 843d a9d9 f2be 92e7 8f3e de70 8e3d
00000030: 0ec3 52bd 2f13 d73c e025 ed3e 875f 38bd
00000040: 3994 3f3e 5429 2bbc 441c 3abe b583 4b3e
00000050: 47fb c1bc 30b2 1d3d 83b4 433d d0ed 813d
00000060: b4e3 88bd 7d2b 6d3e 79e8 11be 2400 a7bd
00000070: 322f 433e 061e 43bd b781 2abd d80a b7bc
-0.15832703 -0.5858368 -0.05175911 0.12983319 0.074142 0.16189244 -0.019422917 0.20957959
0.06480972 -0.47431687 0.28106362 0.069551215 -0.05145555 0.026254265 0.4631796 -0.045012977
0.18708886 -0.010446865 -0.18174845 0.19874461 -0.023679389 0.03850001 0.04777957 0.06344187
-0.06684056 0.2316112 -0.14248838 -0.08154324 0.19060972 -0.047636054 -0.041627612 -0.022344038

conv3.weight f4 [1, 32, 1]
00000000: fa44 b03f a51a b7bf d180 00c0 12b4 71bf
00000010: 3d38 db3d 0a56 a7bf fc72 7f3e 73b3 f73d
00000020: 7b58 823f 8f94 cbbf 70ab 7dbf 2814 ef3d
00000030: 99c1 91bd e9b3 413f ca2f 97bf 7109 46be
00000040: 061d 353f e86f 8abf 2185 14bf 28d7 89bd
00000050: 7807 9c3e 3d12 e73e e4e2 2240 8a0c 43bf
00000060: 151c 21be 75ea c93d 6bac 0ebf 7b20 aebd
00000070: 86fc 963f b946 e93d 7a20 633e a760 aabe
1.377105 -1.4305006 -2.0078623 -0.9441539 0.10704086 -1.3073132 0.24946207 0.12094774
1.0183252 -1.5904711 -0.9908972 0.116737664 -0.07117004 0.75665146 -1.1811459 -0.19339539
0.7074741 -1.0815401 -0.5801564 -0.06730491 0.30474448 0.45131102 2.5450983 -0.7619101
-0.15733369 0.09859172 -0.5573184 -0.08502289 1.1795814 0.113904424 0.22180358 -0.33276865
