model/CNN_longchat_alltask_5case/best_model.pth (torch, 22054 bytes, 5 tensors)

conv1.weight f4 [16, 1, 3, 3]
000000 53 e1 b2 3e 99 ba 9d 3d d9 41 08 3f c5 ff 21 3f
       0.34937534 0.07701606 0.53225476 0.632809
000010 0a a2 80 bf 73 e6 80 3f 5f aa 82 3e 09 79 a7 bf
       -1.004945 1.0070328 0.25520608 -1.3083812
000020 95 be eb bd 9e 17 00 3f fe 74 fe 3c 50 d0 15 3f
       -0.1151096 0.50036037 0.031061646 0.58520985
000030 b8 15 87 3f bf a7 67 3f ae dd 1f bf 44 14 bb be
       1.0553503 0.90490335 -0.6244763 -0.365389
000040 66 f6 a5 bf 81 ac 51 3f fe 2f dd 3e b1 a6 13 3f
       -1.296582 0.81903845 0.43200678 0.57676226
000050 96 f5 2b 3f 55 50 c9 be 82 13 6d 3e 3a 15 5f 3b
       0.6717161 -0.393191 0.23151973 0.0034039752
000060 5d ad 2a 3f e0 ba a6 3e 41 47 07 3e 76 19 12 bd
       0.6667078 0.3256445 0.13210775 -0.035668813
000070 39 4f 9a 3e 36 23 7d bd 34 57 dd 3e c3 17 cb 3e
       0.30138567 -0.061801158 0.43230593 0.39666566
000080 d4 57 75 3d 3d 24 4d be bd a2 0e 3f 43 15 2e be
       0.059898213 -0.20033355 0.5571707 -0.17000298
000090 e9 27 5e 3f 71 61 1e 3f 4f 2c 17 be 28 d5 90 3d
       0.8677965 0.61867434 -0.14762996 0.07071906
0000a0 d7 66 bd bd 8e 34 ca bc 70 2f f5 bd f6 fa 25 3f
       -0.09248131 -0.024683263 -0.119719386 0.6483606
0000b0 12 56 c5 3e 7b 4f 4b 3e e5 1a 67 3d 09 c7 9e 3f
       0.3854223 0.19854538 0.056422133 1.2404491
0000c0 81 25 9e 3e 92 75 88 3e 12 07 b2 3e 70 47 23 bf
       0.30887988 0.266522 0.3477102 -0.6378088
0000d0 12 1c a4 3e 33 2f 0b 3c 78 c7 80 bd d3 2b 19 3f
       0.32052666 0.00849514 -0.06288046 0.59832495
0000e0 d6 5c 38 3f a5 0d 29 3c 58 cb 9a 3d a3 9e af 3e
       0.72016656 0.0103181945 0.07558316 0.34300718
0000f0 f2 3d ff 3e f6 4f 96 bd ee 41 da 3d d3 04 41 3e
       0.49851948 -0.0733947 0.10657106 0.18849497
000100 a0 5b a9 bd af 1e b5 be 88 85 23 be a8 e4 84 3e
       -0.08269429 -0.35374972 -0.15968907 0.259557
000110 cc 07 8b be 95 d5 51 bf b6 0e 2c 3f 13 73 2c be
       -0.27154386 -0.81966525 0.6720995 -0.16840772
000120 f9 26 06 bf 65 d1 36 bf e9 9f 83 3f 69 1b 14 bf
       -0.5240322 -0.7141326 1.0283176 -0.57854325
000130 5c 96 33 be c4 24 83 3d 6e 3d df be a8 19 11 bf
       -0.17537826 0.06403497 -0.43601555 -0.56679773
000140 50 d5 43 3d c0 1f 1d 3f ad 3d 00 3e 12 ee 48 3f
       0.047810853 0.6137657 0.12523527 0.78488266
000150 3d e8 27 bf a1 53 5d 3f 67 3d 08 3f 17 d6 6a 3e
       -0.6558874 0.8645573 0.5321869 0.22933231
000160 02 9a 86 3d 4d fe 6a 3e a4 64 2d 3e 25 9a f6 3e
       0.065723434 0.2294857 0.16932923 0.48164478
000170 d4 8e c1 3d 09 69 39 3d 81 38 a8 3e ad e6 8a bd
       0.094510704 0.045266185 0.3285561 -0.06782279
000180 90 fa fe be 4b 67 d0 3e 16 21 23 3f 63 49 a2 3d
       -0.4980054 0.40703806 0.6372236 0.07924154
000190 1d 94 50 3f 05 30 e6 be e0 85 ef bd fd 16 8f 3e
       0.81476 -0.4495851 -0.116954565 0.27947226
0001a0 91 ae 8c 3e ea 5e c5 3d b5 a7 f5 3d 26 86 c7 bc
       0.27476934 0.09637244 0.11994878 -0.02435596
0001b0 26 4f bd 3e 5d ec 07 c0 b2 05 12 3e 88 cc 08 3f
       0.36974448 -2.1238015 0.14259985 0.5343709
0001c0 84 d8 a3 bd 75 1c b0 bd 06 37 13 bf 56 76 2b 3f
       -0.080002815 -0.08599178 -0.57505834 0.6697744
0001d0 c1 aa be 3c bd cc 22 3f 72 e9 22 3f e1 f8 17 3f
       0.023274781 0.63593656 0.6363746 0.59364134
0001e0 6f aa 0a 3f 3b 8a 95 bf 4d 41 d4 be db 14 0a 3f
       0.5416631 -1.168281 -0.4145607 0.5393807
0001f0 da d2 11 bf 41 d9 01 c0 da 64 52 be f2 8f 6a 3e
       -0.5696236 -2.0288851 -0.20546284 0.22906473
000200 73 d3 ac bd f3 81 93 3e 4b 1c 29 be aa 8d 96 be
       -0.08438768 0.2881008 -0.16514699 -0.29404956
000210 df 82 ba bd 91 99 91 be 70 c4 a8 bd c9 20 2c 3f
       -0.09106993 -0.28437474 -0.082405925 0.67237526
000220 fc 17 50 3e 05 17 7c bd de 08 1f 3d 13 f2 0b 3f
       0.2032165 -0.06154539 0.038826816 0.5466625
000230 0e 3d 26 3d 95 e1 e7 bd fa 33 d6 3e 65 23 e0 3e
       0.04058557 -0.11322323 0.4183653 0.43777004

conv1.bias f4 [16]
000000 f2 bb 3d 3d ed 92 10 3e f8 32 67 3e 69 82 d9 3b
       0.046321817 0.14118548 0.22578037 0.0066378606
000010 9c a3 48 3e a9 75 30 3e c6 50 92 3d 50 b5 b3 bc
       0.19593662 0.17232384 0.071443126 -0.021937042
000020 98 24 2a 3e 4a c9 86 3e f7 cb 9a 3e 12 a9 b5 3d
       0.16615522 0.26325446 0.30233738 0.08870138
000030 cc 10 47 be 0f e1 71 3e 6f 1d a5 be a7 fa 1b 3e
       -0.19440001 0.2362101 -0.3224902 0.15232335

conv2.weight f4 [32, 16, 3, 3]
000000 ab e5 89 bd a4 10 dc bc 0f 23 a2 bd 8b e9 c1 bc
       -0.06733259 -0.026863404 -0.07916843 -0.023670932
000010 cd 57 01 bb b9 aa cd 3c f5 de 01 3d 02 88 53 3c
       -0.0019736171 0.025105821 0.03170677 0.012910845
000020 3f e6 9f 3d 0b 51 a9 3c 7c 5d 8e bd b8 f2 ac 3c
       0.07807588 0.020668527 -0.069514245 0.021111831
000030 c4 63 70 bd 16 ba aa bd 7b b0 2d 3d 69 28 0f 3c
       -0.058688894 -0.08336274 0.042404633 0.008737662
000040 4a 6d 64 3b 33 18 90 bd 96 9f 28 3d ee 08 b9 3b
       0.003485518 -0.07035866 0.041167818 0.0056468165
000050 ac b6 98 bd f8 76 88 bc fb 15 61 bc b6 af 81 bd
       -0.07456717 -0.016658291 -0.013738151 -0.06332342
000060 6a 47 3b bd 49 82 bc bd e9 0b 2a bd 51 5d dc 3c
       -0.045722403 -0.092045374 -0.041515265 0.026899965
000070 4f 23 e3 bd d6 c3 c5 bd 25 25 72 bd af 58 a1 3c
       -0.11090719 -0.09656493 -0.059117455 0.019695608
000080 a0 36 de 3a 9e 0c 99 bd df e6 af bd 5c 02 21 3d
       0.0016953535 -0.0747311 -0.08588957 0.03930889
000090 fa cf c5 bd 0e f4 fc bc b1 9e d9 bb 12 a8 73 bc
       -0.09658809 -0.030878093 -0.006641232 -0.014871614
0000a0 a4 49 b8 3c ac 20 c7 bd 03 fd b6 bd de b5 a0 bd
       0.022496052 -0.097230285 -0.08934977 -0.078471884
0000b0 5e e0 99 bd 84 0b fc bd ab 8d d6 bd fb 44 c0 bd
       -0.07513498 -0.12306884 -0.1047624 -0.09388157
0000c0 29 90 8a bd 49 28 62 bc 15 3c b7 bd 6f 63 c8 bd
       -0.067657776 -0.01380355 -0.089470066 -0.097845905
0000d0 97 43 61 bc 25 c8 7a bd ba 37 eb bd af 80 85 bc
       -0.013749025 -0.06122603 -0.114852384 -0.016296713
0000e0 7c 3b f0 bc f5 96 0b be 53 d8 ac bc a1 e5 e4 bd
       -0.02932524 -0.13631804 -0.021099245 -0.11176611
0000f0 21 62 a1 bd f9 3d 3c bc 09 cc d7 b9 8b 08 66 3d
       -0.07880045 -0.011489385 -0.00041160014 0.05616049
000100 be a0 9c bd 0d 57 5f 3d 09 78 4c 3d 12 1b e9 bc
       -0.07647847 0.054526377 0.049919162 -0.028455291
000110 1f ae 83 bd 06 32 5e bb 74 74 37 bd 24 92 ad bd
       -0.06429695 -0.0033904328 -0.044788793 -0.0847514
000120 ef 39 44 3b 13 1b 00 bd ea 70 97 bd e2 da 80 ba
       0.0029941758 -0.03127582 -0.073945835 -0.0009830857
000130 f5 a8 8c 3b a2 e4 a3 bd 04 e0 99 bd 84 8e cf bd
       0.004292602 -0.080025926 -0.07513431 -0.101346046
000140 89 d0 7f 3d 03 14 92 3c 5f 88 e4 3c 84 0a b1 bd
       0.062454734 0.017831808 0.027897058 -0.08644584
000150 5e 8f c0 bd 9e 07 ef 3c f5 45 35 bd 80 03 b2 bd
       -0.09402345 0.029178437 -0.04425617 -0.08692074
000160 04 34 4f bc a2 f5 c9 bd 37 a8 3f 3d 91 d7 a0 bd
       -0.012646679 -0.09861304 0.04679128 -0.07853616
000170 77 7b 85 3d 7b a4 64 3d 13 ce d9 bc 8d 07 f0 3c
       0.0651769 0.055820923 -0.026587522 0.029300475
000180 b5 2f 9f bd e5 1d 94 bd 4d 31 f8 3c 2b 0f b6 bd
       -0.07772771 -0.072322644 0.030296946 -0.08889612
000190 3b 7c 87 bd 53 70 a2 bd 8c 95 50 bd 22 97 5d 3c
       -0.06615492 -0.079315804 -0.05092387 0.013524802
0001a0 b7 2f 7b bd 66 b0 40 bd 2f 11 cc bc 87 3f 4a bc
       -0.0613248 -0.047043227 -0.024910538 -0.012344248
0001b0 4b 30 90 bd 65 a1 73 3c e2 19 33 bd 5f ba 2c bc
       -0.07040461 0.014870022 -0.043725856 -0.010542481
0001c0 27 13 84 3d 1c 26 b2 bc 61 fd 9d bd 25 d9 93 3d
       0.064489655 -0.021746688 -0.07714344 0.072191514
0001d0 8b ac 15 3c 79 c7 5e bd 12 6f 03 bd 3a e3 1c bd
       0.009135376 -0.05438945 -0.032088347 -0.038302638
0001e0 fb 54 44 bb 2a c1 be bd ee 29 8a bc 57 a8 ac bc
       -0.002995788 -0.09314187 -0.016865697 -0.021076364
0001f0 11 40 1b 3d a5 dd d3 bd 17 e2 80 3c fb da 9c bd
       0.037902895 -0.1034501 0.015732808 -0.07658955
000200 03 06 55 3d 41 c3 93 bd be 00 0c bd e8 4e 58 bc
       0.052007686 -0.07214976 -0.034180395 -0.0132024065
000210 25 04 cd 3c b8 ba 5d bd 54 2c a8 3d 7f 26 a8 bb
       0.02502639 -0.054133147 0.0821158 -0.005131542
000220 f8 ae db bd d7 2e 77 bd 10 19 87 bd 3f 33 89 bd
       -0.10726732 -0.060347404 -0.06596577 -0.066992275
000230 d2 20 0f bd 1c 4f a7 bd 71 17 db bb ee 8b 85 3c
       -0.03494341 -0.08169386 -0.006686144 0.016302075
000240 0d 2b 3b 3e dd af 8c 3d 16 25 fa 3c 8b 0f 50 3d
       0.18278141 0.06869481 0.030535262 0.050796073
000250 6f 63 ed 3d fe 2e b5 bd 48 f7 ca 3b 87 e0 47 3d
       0.11591231 -0.08846854 0.006194029 0.04879811
000260 c9 c9 5c be d3 26 b6 bd 83 75 8e 3d b2 4a b7 bc
       -0.2156135 -0.08894124 0.06956007 -0.022374485
000270 5a ad 9c bd 09 eb 16 bb ea 49 94 3c f4 2b f1 bd
       -0.07650252 -0.0023028275 0.018101651 -0.117759615
000280 18 1b e7 bd ee b4 c3 3c 4a c3 a0 bc 46 26 41 3d
       -0.112844646 0.023889985 -0.019624371 0.04715564
000290 b9 db 95 bc c2 b8 9e bd e2 c6 08 bd ae bd 9f 3d
       -0.018293248 -0.077500835 -0.033392794 0.077998504
0002a0 69 81 57 bc 53 ee 0d bc a6 19 66 bd c8 50 47 3d
       -0.013153412 -0.008662778 -0.056176804 0.048661023
0002b0 bf a7 3c be d0 1d c7 bc 00 75 2f 3d c1 18 55 be
       -0.18423365 -0.024306208 0.04283619 -0.20810224
0002c0 20 30 80 bc bb d2 9e bd e8 1d 6d be 07 d9 aa bd
       -0.015647948 -0.077550374 -0.2315594 -0.08342176
0002d0 98 02 3c bc 8b 88 5b 3d 04 78 97 3c 47 2d 7f bc
       -0.011475228 0.053597014 0.018489845 -0.01557476
0002e0 10 9b 75 bc 80 f4 a9 bc b0 df 87 bd 73 db 43 bc
       -0.014990583 -0.02074647 -0.06634462 -0.011954176
0002f0 2c 48 e2 bd d0 38 24 3e 40 e7 6a bd c2 68 72 bc
       -0.11048922 0.16037297 -0.057349443 -0.014795484
000300 f9 f0 12 bb fc 09 af bd b7 2e cd 3d 0c 71 3d bd
       -0.0022421463 -0.08546826 0.10018676 -0.046250388
000310 eb 82 0a bd c9 da f8 bd 61 dd db 3d 6b 56 be 3c
       -0.03381626 -0.12151105 0.10735584 0.023234567
000320 1e 98 fe 39 93 17 17 bd 25 c1 60 bc 9a 76 15 3d
       0.0004855999 -0.036887717 -0.013717924 0.03649006
000330 bc dc e6 bc c9 c1 a3 bd 62 9d 09 be 0d 5c 8c 3e
       -0.028181426 -0.07995946 -0.13438943 0.2741398
000340 8f 67 fe bd 55 8d 1a 3b 5a 94 93 3d 69 1b af bd
       -0.12422096 0.0023582776 0.0720603 -0.0855015
000350 36 8e 33 bd 44 e6 76 3d a5 a1 88 bd 54 cf de bb
       -0.043836795 0.060278192 -0.06671456 -0.006799618
000360 b8 3f 00 3e 4c 36 82 bd c1 95 37 3d 3c ac 84 bd
       0.12524307 -0.063580126 0.04482055 -0.064781636
000370 17 0a c0 bc dc 21 80 3c f8 ed 96 3c 9c c5 b7 bc
       -0.023442311 0.015641145 0.01842402 -0.022433095
000380 21 00 64 3d e6 b4 44 3d bf 42 03 3d 7c e1 22 3d
       0.055664185 0.04802408 0.032046076 0.03976582
000390 2c 3a f7 bc fb 14 ae bd 6e e7 ad 3d 05 ef 1f bd
       -0.030179106 -0.085000955 0.08491407 -0.039046306
0003a0 79 42 48 3b 2c a5 68 3b 16 89 f4 bd ad de a4 bd
       0.00305572 0.003549884 -0.119402096 -0.080502845
0003b0 31 9f b0 3d 99 97 7f bd 69 5a 1c 3c 44 a1 7b 3d
       0.08624113 -0.062400434 0.00954304 0.06143309
0003c0 d0 d0 30 bd e9 ab 09 3d c7 32 10 bd cb 82 01 be
       -0.04316789 0.033611212 -0.035204675 -0.1264755
0003d0 9d 24 6b bc 6a 57 92 bd 22 95 81 bd bb 07 36 bd
       -0.014351991 -0.07145579 -0.06327273 -0.044440966
0003e0 92 8d 38 bd f8 dd 88 bd 68 80 d7 bd fb 6e 0f 3d
       -0.045056887 -0.06682962 -0.105225384 0.03501795
0003f0 ca e5 57 be 27 de 18 3e dd bf 21 3f 7e c1 93 be
       -0.21083751 0.14928494 0.63183385 -0.2885856

conv2.bias f4 [32]
000000 d3 f7 1d 3d 45 ad ae bc f4 f8 31 3d bb 56 99 be
       0.03856642 -0.021322856 0.04345031 -0.29948983
000010 0f a6 28 bf e6 5a 3b bd f7 50 9e bd a5 be 0c bf
       -0.65878385 -0.045740984 -0.077302866 -0.549784
000020 1c e1 bc bc b8 84 69 be 44 9b e9 be 9f a7 84 3d
       -0.02305656 -0.22804534 -0.4562627 0.06477284
000030 a0 bc 63 bd 0a 97 a3 3d 30 52 44 bc 5f 42 a5 be
       -0.05559981 0.07987793 -0.011982486 -0.322772
000040 12 17 fa be 81 02 ee 3b 92 1a ba bd bb 8b 81 3d
       -0.48845726 0.007263482 -0.09087099 0.063254796
000050 8d 94 f8 bd 8d 44 c6 bd 50 f4 65 be 3e cf 9e bd
       -0.12137709 -0.09681044 -0.22456479 -0.07754372
000060 11 36 13 be 4a 93 52 be be c0 5d be 69 d6 9b bd
       -0.14376093 -0.20563999 -0.21655557 -0.07609255
000070 0b 4b 9e bd 94 a8 fa be 6b 45 b2 bc 66 d8 4b be
       -0.07729157 -0.4895674 -0.021761617 -0.19906768

conv3.weight f4 [1, 32, 1]
000000 38 f8 e2 3b fd 84 5d bd e6 12 bf b8 5a 4e 9b be
       0.0069265626 -0.054081906 -9.11111e-05 -0.30333215
000010 f8 9f f4 bd a8 05 16 be b2 94 9f 3b 8e b4 bc 3d
       -0.11944574 -0.14650595 0.004870021 0.092141256
000020 30 b0 4f 3b af c0 15 be 14 ab bc bd 6c fa a8 bd
       0.003169071 -0.14624284 -0.09212318 -0.08250889
000030 c2 a8 da 3c 06 ce 1e 3d 39 b9 17 bf c5 84 96 bf
       0.026691798 0.038770698 -0.59267 -1.1759268
000040 e5 4e 16 be 0e 35 f7 bc 1c 24 a4 3b bd c0 00 3e
       -0.14678533 -0.030176666 0.0050091874 0.12573524
000050 62 3a b7 3c f1 e8 9a 3e 1a 34 aa bb 00 22 04 3d
       0.022366706 0.30255845 -0.0051941993 0.032258987
000060 89 ec cc 3c 58 4a 7c be ee 65 08 40 6c 18 15 be
       0.025015133 -0.24637735 2.1312213 -0.14560097
000070 7e 1b ef ba 69 d0 3d bd 67 95 43 3d 48 48 16 bd
       -0.0018242446 -0.046341334 0.047749903 -0.036690027
